data/kmeans/b2d_plan_spat_6x8_2m.npy (npy, 2432 bytes, 1 tensors)

array f4 [48, 6, 2]
00000000: ac30 80be cce2 583f ac30 00bf cce2 d83f
00000010: 0249 40bf 19aa 2240 ac30 80bf cce2 5840
00000020: d73c a0bf c08d 8740 0249 c0bf 19aa a240
00000030: 83b4 fa3d 8423 5b3f 83b4 7a3e 8423 db3f
00000040: 6207 bc3e a35a 2440 83b4 fa3e 8423 5b40
00000050: d2b0 1c3f 32f6 8840 6207 3c3f a35a a440
00000060: 4344 6dbd 4364 613f 4344 edbd 4364 e13f
00000070: 32f3 31be 320b 2940 4344 6dbe 4364 6140
00000080: aa4a 94be aade 8c40 32f3 b1be 320b a940
00000090: 40b5 e2bd d72e 623f 40b5 62be d72e e23f
000000a0: f007 aabe 21a3 2940 40b5 e2be d72e 6240
000000b0: 48b1 0dbf 465d 8d40 f007 2abf 21a3 a940
000000c0: 39f7 0e3e c85a 623f 39f7 8e3e c85a e23f
000000d0: d672 d63e 16c4 2940 39f7 0e3f c85a 6240
000000e0: 08b5 323f bd78 8d40 d672 563f 16c4 a940
000000f0: 955d cd3e f494 423f 955d 4d3f f494 c23f
00000100: 3006 9a3f b7ef 1140 955d cd3f f494 4240
00000110: 7d5a 0040 313a 7340 3006 1a40 b7ef 9140
00000120: 75b1 3fbd 3f93 603f 75b1 bfbd 3f93 e03f
00000130: 18c5 0fbe 6f6e 2840 75b1 3fbe 3f93 6040
00000140: d39d 6fbe 075c 8c40 18c5 8fbe 6f6e a840
00000150: 97cb 8b3c b7c0 643f 97cb 0b3d b7c0 e43f
00000160: 62b1 513d 8990 2b40 97cb 8b3d b7c0 6440
00000170: 7cbe ae3d 72f8 8e40 62b1 d13d 8990 ab40
00000180: 1bad 56bd d1c2 663f 1bad d6bd d1c2 e63f
00000190: d401 21be 1d12 2d40 1bad 56be d1c2 6640
000001a0: 312c 86be c339 9040 d401 a1be 1d12 ad40
000001b0: 9dea 52bc 3b4e 623f 9dea d2bc 3b4e e23f
000001c0: f62f 1ebd acba 2940 9dea 52bd 3b4e 6240
000001d0: a2d2 83bd e570 8d40 f62f 9ebd acba a940
000001e0: c93b 443e 801e 5a3f c93b c43e 801e da3f
000001f0: d72c 133f e096 2340 c93b 443f 801e 5a40
00000200: bc4a 753f 1053 8840 d72c 933f e096 a340
00000210: 2419 ad3e cbdb 493f 2419 2d3f cbdb c93f
00000220: dbd2 813f d864 1740 2419 ad3f cbdb 4940
00000230: 6d5f d83f bd52 7c40 dbd2 0140 d864 9740
00000240: bb50 92be 3002 573f bb50 12bf 3002 d73f
00000250: 1979 5bbf a441 2140 bb50 92bf 3002 5740
00000260: eae4 b6bf 5e61 8640 1979 dbbf a441 a140
00000270: 4900 7bbe 5b9f 573f 4900 fbbe 5b9f d73f
00000280: 3740 3cbf 84b7 2140 4900 7bbf 5b9f 5740
00000290: 2ee0 9cbf 99c3 8640 3740 bcbf 84b7 a140
000002a0: 457d 3dbe 30f9 5d3f 457d bdbe 30f9 dd3f
000002b0: f41d 0ebf e47a 2640 457d 3dbf 30f9 5d40
000002c0: 97dc 6cbf bebb 8a40 f41d 8ebf e47a a640
000002d0: 005c c93e ed3e 3e3f 005c 493f ed3e be3f
000002e0: 0005 973f 32af 0e40 005c c93f ed3e 3e40
000002f0: 00b3 fb3f a9ce 6d40 0005 1740 32af 8e40
00000300: 4537 11bc 741f 633f 4537 91bc 741f e33f
00000310: e8d2 d9bc 9757 2a40 4537 11bd 741f 6340
00000320: 1785 35bd a8f3 8d40 e8d2 59bd 9757 aa40
00000330: 0be1 37bb 8027 5f3f 0be1 b7bb 8027 df3f
00000340: c8e8 09bc a05d 2740 0be1 37bc 8027 5f40
00000350: 4dd9 65bc b078 8b40 c8e8 89bc a05d a740
00000360: 2560 e93b 3b54 5d3f 2560 693c 3b54 dd3f
00000370: 1c08 af3c 2cff 2540 2560 e93c 3b54 5d40
00000380: 17dc 113d a554 8a40 1c08 2f3d 2cff a540
00000390: 2d65 9a3c 7403 5f3f 2d65 1a3d 7403 df3f
000003a0: c497 673d 9742 2740 2d65 9a3d 7403 5f40
000003b0: 79fe c03d 2862 8b40 c497 e73d 9742 a740
000003c0: d5f3 053e 7721 5c3f d5f3 853e 7721 dc3f
000003d0: c0ed c83e 1919 2540 d5f3 053f 7721 5c40
000003e0: cb70 273f ea94 8940 c0ed 483f 1919 a540
000003f0: b478 aabe d9b1 4e3f b478 2abf d9b1 ce3f
-0.25037134 0.84721065 -0.5007427 1.6944213 -0.751114 2.541632 -1.0014853 3.3888426
-1.2518567 4.2360535 -1.502228 5.083264 0.12241461 0.8560107 0.24482922 1.7120214
0.36724383 2.568032 0.48965845 3.4240427 0.61207306 4.280053 0.73448765 5.136064
-0.057926428 0.8804361 -0.115852855 1.7608722 -0.17377928 2.6413083 -0.23170571 3.5217445
-0.28963214 4.4021807 -0.34755856 5.2826166 -0.11069727 0.8835272 -0.22139454 1.7670544
-0.3320918 2.6505816 -0.44278908 3.5341089 -0.55348635 4.417636 -0.6641836 5.301163
0.13961495 0.8841977 0.2792299 1.7683954 0.41884488 2.6525931 0.5584598 3.5367908
0.6980748 4.4209886 0.83768976 5.3051863 0.4011046 0.76008534 0.8022092 1.5201707
1.2033138 2.280256 1.6044184 3.0403414 2.005523 3.8004267 2.4066277 4.560512
-0.046800096 0.8772468 -0.09360019 1.7544936 -0.14040029 2.6317403 -0.18720038 3.5089872
-0.23400049 4.386234 -0.28080058 5.2634807 0.017064853 0.8935656 0.034129705 1.7871312
0.051194556 2.6806967 0.06825941 3.5742624 0.08532426 4.467828 0.10238911 5.3613935
-0.05241118 0.90141016 -0.10482236 1.8028203 -0.15723354 2.7042305 -0.20964472 3.6056406
-0.2620559 4.507051 -0.31446707 5.408461 -0.012873319 0.8840062 -0.025746638 1.7680124
-0.038619958 2.6520185 -0.051493276 3.5360248 -0.064366594 4.420031 -0.077239916 5.304037
0.19163431 0.8520279 0.38326862 1.7040558 0.57490295 2.5560837 0.76653725 3.4081116
0.9581716 4.2601395 1.1498059 5.1121674 0.33808243 0.78851 0.67616487 1.57702
1.0142473 2.36553 1.3523297 3.15404 1.6904122 3.94255 2.0284946 4.73106
-0.28577217 0.8398771 -0.57154435 1.6797543 -0.85731655 2.5196314 -1.1430887 3.3595085
-1.4288609 4.1993856 -1.7146331 5.039263 -0.24511828 0.8422753 -0.49023655 1.6845506
-0.73535484 2.526826 -0.9804731 3.3691013 -1.2255914 4.2113767 -1.4707097 5.053652
-0.18504818 0.86708355 -0.37009636 1.7341671 -0.55514455 2.6012506 -0.7401927 3.4683342
-0.92524093 4.3354177 -1.1102891 5.2025013 0.39328003 0.7431477 0.78656006 1.4862953
1.1798401 2.229443 1.5731201 2.9725907 1.9664001 3.7157385 2.3596802 4.458886
-0.008863275 0.8871987 -0.01772655 1.7743974 -0.026589826 2.661596 -0.0354531 3.5487947
-0.044316377 4.435993 -0.05317965 5.323192 -0.002805772 0.8716965 -0.005611544 1.743393
-0.008417316 2.6150894 -0.011223088 3.486786 -0.014028859 4.3584824 -0.016834632 5.230179
0.007122057 0.8645665 0.014244114 1.729133 0.021366172 2.5936995 0.028488228 3.458266
0.035610285 4.3228326 0.042732343 5.187399 0.018847072 0.87114644 0.037694145 1.7422929
0.05654122 2.6134393 0.07538829 3.4845858 0.09423537 4.355732 0.11308244 5.2268786
0.13081296 0.85988563 0.26162592 1.7197713 0.3924389 2.5796568 0.52325183 3.4395425
0.65406483 4.299428 0.7848778 5.1593137 -0.33295214 0.80740124 -0.6659043 1.6148025
