data/kmeans/b2d_motion_6.npy (npy, 5312 bytes, 1 tensors)

array f8 [9, 6, 6, 2]
0	0x3ff5771cb25fd2a2	1.3415801017519375
1	0xbf7109ac03e3fbdf	-0.00415961450039412
2	0x4004bbf5189e2d94	2.5917760775825602
3	0xbf92182fe4ec4b3d	-0.01767039141402481
4	0x400f3797969da1c3	3.902144600568336
5	0xbfa49475139e3da7	-0.04019513954619507
6	0x40155d19304aaad6	5.340916399533588
7	0xbfb23c5f7d398068	-0.07123371894113151
8	0x401b91565360506e	6.891930868867446
9	0xbfbc332aa26040f9	-0.11015573944337466
10	0x40210dceb4d4b40b	8.52696766945339
11	0xbfc4052551f2feed	-0.15640703679490944
12	0x400f62e24a78fc3f	3.9232831781551165
13	0xbf6927ed12905e15	-0.003070796043640698
14	0x401fca37812a43c4	7.947477358059533
15	0xbf85afd131c28a7b	-0.010589250880291381
16	0x402803dfa90da1de	12.00756576815996
17	0xbf979194f7d07167	-0.023016288400059006
18	0x40300b8b63323514	16.045095634229327
19	0xbfa591e44d64b685	-0.04212869114631438
20	0x4034025e00c33bf6	20.009246871628385
21	0xbfb1d48ec6ab61a8	-0.06964962339714609
22	0x4037e36f2b00ccaa	23.888415038771804
23	0xbfbafd2ac6202cc3	-0.10542552315762337
24	0x3fb81fd0ee7a3df0	0.09423547575192237
25	0x3f2e2b2492e17888	0.00023016759354538654
26	0x3fc455ee2ae9e2e0	0.15887238593474873
27	0x3f3f6794648acfb0	0.0004791962897272529
28	0x3fcbb3ef2d1967e0	0.21642865850554838
29	0x3f4ae86387b51380	0.0008211599337434178
30	0x3fd2274e6fe2cdb0	0.2836490719448319
31	0x3f59f5472502bc50	0.0015843577166767715
32	0x3fd815a5505adf00	0.37632115218319484
33	0x3f6508136b7dd2f0	0.0025673274321270576
34	0x3fe042b42b512730	0.5081425519976843
35	0x3f6aa29cbd91b460	0.003251367696569349
36	0x40171c0981656fc5	5.777380010429572
37	0xbf816a66a878229c	-0.008503725067400318
38	0x4027b6e59abfb3f5	11.857220493222465
39	0xbfa522707906d215	-0.04127837636352553
40	0x4032630eedc51b42	18.386946545240114
41	0xbfb762d638a7477b	-0.09135187991276254
42	0x4039aab78c71a85e	25.666863229511698
43	0xbfc54f4943ee484d	-0.16648212258275166
44	0x40406422e10aa6b1	32.78231442470622
45	0xbfd032774f6ece17	-0.25308020360100286
46	0x40434d7065a20691	38.60499258433732
47	0xbfd71ef07c57b767	-0.3612633909495941
48	0x4003414ec92b52ad	2.406888553270923
49	0xbf65f2a91d0ac15c	-0.0026791861531238314
50	0x4014404d2b3e6f56	5.062794376073574
51	0xbf8624a9e9e5ae72	-0.010812118006206382
52	0x401f1d4e82c0df7c	7.778619807264359
53	0xbf9a19ac2aea0ad2	-0.025488557929302776
54	0x4024d448b2ac19c7	10.414617141254793
55	0xbfa6ea71eb2b0039	-0.04475742335989747
56	0x4029e223d6940d9f	12.941679673741247
57	0xbfb0d7f59568bf90	-0.06579527757344139
58	0x402ec8a4d393c595	15.391882526196051
59	0xbfb6931d9c71bc8e	-0.08818230695190918
60	0x4031776c3838fe4c	17.466495050348655
61	0x3fabd2e9ae856f8a	0.05434351210962436
62	0x404161ea3f306300	34.76496114599831
63	0x3fb83159751fc21d	0.09450301274751678
64	0x4048466e20d4186e	48.550235847055646
65	0x3fa4d71b67bb450c	0.04070363656286177
66	0x404b3e6d06d700ac	54.48770223138976
67	0xbf94ae49ad972a0c	-0.02019610521328201
68	0x404bdc18887196e4	55.71949868723257
69	0xbfb15ef124a2db7d	-0.06785494942128696
70	0x404c73ded5edbbd0	56.90523790462578
71	0xbfbe954a2200d80c	-0.11946547823103532
72	0x3f699de7551d5520	0.0031270521366574405
73	0x3ec919472acdb81d	2.99200322333768e-06
74	0x3f700601120ea8c0	0.003911976033956488
75	0x3ed8e5082b622ae2	5.935348488371046e-06
76	0x3f72eca230c6f800	0.004620202595502221
77	0x3ee0045d61bfc888	7.637524554103084e-06
78	0x3f79cd90e85eba00	0.006299558683095174
79	0x3ede55cc566cf880	7.232463167748432e-06
80	0x3f85507a6977d920	0.01040740618098518
81	0x3ed0fc4602f6bfc0	4.049645255063629e-06
82	0x3f9a8a4d048d8960	0.02591820087708052
83	0xbeedae9e1abe24f4	-1.4153528205234561e-05
84	0x3ff716b7b16433ac	1.443046276984414
85	0xbf4e710695069632	-0.0009290010585131846
86	0x400c9773128a6f0b	3.573949951982177
87	0xbf60acf966ba52bf	-0.0020356055372963973
88	0x4027b3340f62e393	11.850006562062651
89	0xbf87fa3c0bb85367	-0.011707753284136492
90	0x403b1338a19b0d1e	27.07508287463599
91	0xbf9fc47e36edb0fe	-0.031022998907631376
92	0x4045aada31f88b8e	43.334783789024286
93	0xbfa9c0e98e558d0f	-0.05029992926099613
94	0x404e0fcc39b6f943	60.12341996607076
95	0xbfb05d1f25e8a380	-0.06392092395311799
96	0x3fe73416f6b19dbb	0.7251086061705146
97	0x3f1446eb4d00ffc2	7.735072290504435e-05
98	0x3ff487e9b2161455	1.2831818539136937
99	0xbf3a181f355a00e8	-0.00039816629337253865
100	0x4004712c1996fbc5	2.555259895248556
101	0xbf566219ce0f09bf	-0.0013661624909536566
102	0x40204c0744ca0d09	8.148492955841464
103	0xbf8030949f62c0fe	-0.007905160059039403
104	0x40346e98c11a5382	20.43201834576349
105	0xbf99e1815a8836c1	-0.025274296904220565
106	0x404205fc8daa2108	36.04676981741983
107	0xbfa891387b2adad1	-0.04798294547565763
108	0x400338764750fec7	2.4025693484871655
109	0xbf43b04eb21c4580	-0.0006008514648973423
110	0x4027c1a14471a511	11.878183497307448
111	0xbf76b041b4217002	-0.005539185194802345
112	0x403b675767aeb0ed	27.403677444600294
113	0xbf9059f50813fe16	-0.01596815931134018
114	0x4045e3d473768ea9	43.77992099083833
115	0xbf95379df4ecdc74	-0.02071997458844206
116	0x404e4a836e343de3	60.582135940083184
117	0xbf70195d020b2332	-0.003930438339644836
118	0x405350ae771e698f	77.26064851732211
119	0x3fa7a82fdc71ff2b	0.046205039653612744
120	0x4014d8fc9caaca5e	5.211901138233399
121	0x3f1253512dfc6102	6.990607243684627e-05
122	0x4020ffb3c46232a3	8.49941838930801
123	0x3f2d3c6e1632dc23	0.00022305339652969975
124	0x402443293beb150e	10.131173965879977
125	0x3f43726cae7a7bd6	0.0005934744521772738
126	0x40265c3f59738637	11.180170817710957
127	0x3f5345b2558374fc	0.0011762849372226039
128	0x4027a1ecf7954246	11.816261040659025
129	0x3f5a4e7d25b1581b	0.0016056272641171768
130	0x402bda5b9b7098bc	13.926480157370285
131	0x3f60b53b5cb5073f	0.0020395430962318046
132	0x401dba1f90280780	7.431761028712458
133	0xbf277543663e2b2b	-0.0001789707922593362
134	0x402e79a140ccd7be	15.237558388714998
135	0xbf442e1f9c201905	-0.0006158499093096575
136	0x4036f7589e4a43cd	22.966195958262507
137	0xbf735177bd4b6d19	-0.004716365558773882
138	0x403eb938300f3fd9	30.723513606760978
139	0xbf83f81837d1cfc5	-0.009750546649435319
140	0x4043f8db9db93307	39.94420215170799
141	0x3f824a6efeb6a1a5	0.008931033275829512
142	0x4048ae094e71ae41	49.3596590094644
143	0x3fb0958a306a8bdc	0.06478179628406572
144	0x4014521231d8becc	5.080147532323917
145	0xbef447b972e56880	-1.9340680574721648e-05
146	0x4022398f8666469a	9.112423133835637
147	0x3f1662a83874a980	8.539344536432313e-05
148	0x4027721d0bb7e5f8	11.722877851675534
149	0x3f00069a6c13f080	3.056677588550525e-05
150	0x402a5e2b73b7304a	13.183925262557882
151	0xbed26ebcba39e800	-4.3946664934849805e-06
152	0x402c5b9fc305ef45	14.178953260874218
153	0xbec6b4718acd0000	-2.7066299338740496e-06
154	0x402ffc537fd6776a	15.992824549608219
155	0x3f19583de5654000	9.668233665149906e-05
156	0x3fdb9eb0b7911d38	0.4315606873173752
157	0xbf09344876f47d40	-4.8073255010767316e-05
158	0x3fe4d4b6a85efc30	0.6509660042282857
159	0xbf1584d70eef4560	-8.208811389855608e-05
160	0x3fe957b34da3cce0	0.7919556156542988
161	0xbf21520d8f7267e0	-0.0001321450760983214
162	0x3fef0ceeea2b4530	0.9703287671674499
163	0xbf267b3af3a58480	-0.00017151922822747703
164	0x3ffabe77d7f7e0b0	1.6715010105381616
165	0xbf4916614057bbb0	-0.0007656073436786894
166	0x400ce485cd94f600	3.6115833340725203
167	0xbf7765edb5669e88	-0.005712441014487653
168	0x401a03f54405f77a	6.503865301956347
169	0xbf594c650bf28d0d	-0.0015440928253063785
170	0x402cf37b89decc02	14.475551899382484
171	0xbf778890d5c27ee8	-0.005745473634447974
172	0x4036ca6bf5701bb8	22.7907098196699
173	0xbf8774b15e992b98	-0.011453042697345414
174	0x403f75f4f1fb4146	31.4607688177505
175	0xbf91bba5cac3e74f	-0.017317381382759674
176	0x404424e330ac0d84	40.2881832923986
177	0xbf9b30a57c1d71f4	-0.026552758884791985
178	0x40488efa4af70fe2	49.117013331065905
179	0xbfa27fc2f24dcfee	-0.03613099296390475
180	0x3fc175ce3b6d52c0	0.13640764142714623
181	0x3f08ee1f54fba9f8	4.755051724976764e-05
182	0x3fc8fe7bc6d5e260	0.19526622017635287
183	0x3f10bee9405b5120	6.387995389484482e-05
184	0x3fed19da2b0a5ec0	0.9094057884821822
185	0xbf293a2c6da38ad0	-0.00019246857011186733
186	0x40183fd0f78324ae	6.0623205827516085
187	0xbf78f8e5ce9ca2fc	-0.006096742328545398
188	0x402c544950c1ab37	14.164621852532589
189	0xbf9a4dd2b2ccb1fa	-0.02568749634080978
190	0x4036cec874dcc709	22.807746223355057
191	0xbfabc00517fc19d3	-0.054199370553806546
192	0x3fe6afde8dd2d062	0.7089684267034608
193	0x3ee7c24b95c85700	1.132915775152064e-05
194	0x400b1ec405c0e637	3.390022320699042
195	0x3efc70b0c845e100	2.7122685894082933e-05
196	0x4024eb802208b3d4	10.45996195179206
197	0xbf6b1bf2847b3bca	-0.0033092247648265115
198	0x4032880a5715f110	18.53140777860341
199	0xbf8d71f2cc960632	-0.014377495640249458
200	0x403acaf7f0967ade	26.792845761049527
201	0xbf9cf123733c67ba	-0.028263620289272963
202	0x4041b2e8efff9da2	35.39773368817556
203	0xbfb164880a4c8976	-0.06794023753585585
204	0x400ab692e36b13a2	3.339147354798528
205	0xbf0d3aabcb04b998	-5.575024386171855e-05
206	0x402c509565d35332	14.157389814421183
207	0xbf290f43a51f7660	-0.00019118977303282918
208	0x403e4179b7afebb6	30.255763512086297
209	0xbef1524684df9980	-1.651896337042649e-05
210	0x40475a8d71961386	46.70744151905005
211	0xbf901e1348b542cd	-0.015739728272196985
212	0x404fa2dcd68164d8	63.272364438229204
213	0xbfc5785df9f7245f	-0.16773581223813758
214	0x4053fac879776ec4	79.91848599112842
215	0xbfe225c3f97a4e58	-0.5671100494968853
216	0x3fe9bce566ed0c08	0.8043086061737776
217	0xbf774a05307932b8	-0.005685825606246801
218	0x3ffa0a242628894d	1.6274758806763032
219	0xbf9661d09251461c	-0.021857508593091976
220	0x4003d69cd53a9602	2.479791322565462
221	0xbfa59d800de83b56	-0.042217256257677846
222	0x400ad95627fd113a	3.3561213611702927
223	0xbfb03be06d5717c5	-0.06341364545286783
224	0x40110304288c1ebf	4.252945550491574
225	0xbfb56bd32c12d298	-0.08367652727140251
226	0x4014ace582429588	5.168844256700488
227	0xbfba850e6c2a844e	-0.10359277859471769
228	0x4003047c4018f726	2.3771901137942164
229	0x3f3308d5f9a17cf4	0.0002904436493107031
230	0x4013544cbb1aa822	4.832323955060959
231	0x3f6d994c6f1fa008	0.003613137517266555
232	0x401d7e57a8f84822	7.373381271509091
233	0x3f7eabc0c128879a	0.007488015124666259
234	0x4024013375bb4384	10.00234573279318
235	0x3f7cab94c90b4618	0.0069995700766454436
236	0x40296d75e6c1a8e8	12.713790141239272
237	0x3f77f5b66bc1ab20	0.005849564153417558
238	0x402effee6122911e	15.499865565747822
239	0x3f8697a6c31e766c	0.011031439618643911
240	0x3ffc8b444d030ca2	1.7840006836202424
241	0x3f8009f45605604c	0.00783148658290158
242	0x400cbdfe500e3ff4	3.5927702192639064
243	0x3f9d795fc176dc92	0.028783317740558596
244	0x4015dd521e6c8260	5.466133571026688
245	0x3fa1e3825aef5c17	0.034938882446731316
246	0x401d95ee40457193	7.3964166681656875
247	0x3f9f0a5b94d04c91	0.030312949140420434
248	0x4022c837ed4236cd	9.391051687557956
249	0x3f9df0052ed276c2	0.02923591707496232
250	0x4026e7218342c07b	11.451427556894705
251	0x3fa1ab3d7f914459	0.03450958425731505
252	0x3f9eb673f1c38180	0.02999287760838021
253	0xbf5967d1f606f6f4	-0.001550631561357316
254	0x3fa5f8b091e4d880	0.04291297703677888
255	0xbf42c3c6de0ff03c	-0.0005726548225761861
