data/kmeans/b2d_map_100.npy (npy, 32128 bytes, 1 tensors)

array f8 [100, 20, 2]
000000 b7 03 e2 ec 5c a6 29 c0 d5 c3 4d b0 fe 97 34 c0
       -12.82492771395651 -20.593729990945423
000010 b7 03 e2 ec 5c a6 29 c0 fc 52 dc 52 03 e0 33 c0
       -12.82492771395651 -19.875050715246275
000020 b7 03 e2 ec 5c a6 29 c0 24 e2 6a f5 07 28 33 c0
       -12.82492771395651 -19.15637143954713
000030 b7 03 e2 ec 5c a6 29 c0 4a 71 f9 97 0c 70 32 c0
       -12.82492771395651 -18.437692163847977
000040 b7 03 e2 ec 5c a6 29 c0 72 00 88 3a 11 b8 31 c0
       -12.82492771395651 -17.719012888148832
000050 b7 03 e2 ec 5c a6 29 c0 99 8f 16 dd 15 00 31 c0
       -12.82492771395651 -17.000333612449683
000060 b7 03 e2 ec 5c a6 29 c0 c0 1e a5 7f 1a 48 30 c0
       -12.82492771395651 -16.281654336750535
000070 b7 03 e2 ec 5c a6 29 c0 ce 5b 67 44 3e 20 2f c0
       -12.82492771395651 -15.562975061051386
000080 b7 03 e2 ec 5c a6 29 c0 1c 7a 84 89 47 b0 2d c0
       -12.82492771395651 -14.844295785352237
000090 b7 03 e2 ec 5c a6 29 c0 6a 98 a1 ce 50 40 2c c0
       -12.82492771395651 -14.125616509653089
0000a0 b7 03 e2 ec 5c a6 29 c0 b9 b6 be 13 5a d0 2a c0
       -12.82492771395651 -13.406937233953942
0000b0 b7 03 e2 ec 5c a6 29 c0 08 d5 db 58 63 60 29 c0
       -12.82492771395651 -12.688257958254795
0000c0 b7 03 e2 ec 5c a6 29 c0 56 f3 f8 9d 6c f0 27 c0
       -12.82492771395651 -11.969578682555646
0000d0 b7 03 e2 ec 5c a6 29 c0 a4 11 16 e3 75 80 26 c0
       -12.82492771395651 -11.250899406856497
0000e0 b7 03 e2 ec 5c a6 29 c0 f2 2f 33 28 7f 10 25 c0
       -12.82492771395651 -10.532220131157349
0000f0 b7 03 e2 ec 5c a6 29 c0 40 4e 50 6d 88 a0 23 c0
       -12.82492771395651 -9.8135408554582
000100 b7 03 e2 ec 5c a6 29 c0 8e 6c 6d b2 91 30 22 c0
       -12.82492771395651 -9.094861579759051
000110 b7 03 e2 ec 5c a6 29 c0 dc 8a 8a f7 9a c0 20 c0
       -12.82492771395651 -8.376182304059903
000120 b7 03 e2 ec 5c a6 29 c0 55 52 4f 79 48 a1 1e c0
       -12.82492771395651 -7.657503028360755
000130 b7 03 e2 ec 5c a6 29 c0 f3 8e 89 03 5b c1 1b c0
       -12.82492771395651 -6.938823752661608
000140 97 42 eb 66 31 0b 00 c0 0d 6a 60 86 b8 33 37 40
       -2.0054653206391992 23.202034376658094
000150 97 42 eb 66 31 0b 00 c0 4a 20 e9 cf a9 c9 37 40
       -2.0054653206391992 23.787747377791938
000160 97 42 eb 66 31 0b 00 c0 88 d6 71 19 9b 5f 38 40
       -2.0054653206391992 24.373460378925785
000170 97 42 eb 66 31 0b 00 c0 c6 8c fa 62 8c f5 38 40
       -2.0054653206391992 24.95917338005963
000180 97 42 eb 66 31 0b 00 c0 04 43 83 ac 7d 8b 39 40
       -2.0054653206391992 25.54488638119348
000190 97 42 eb 66 31 0b 00 c0 42 f9 0b f6 6e 21 3a 40
       -2.0054653206391992 26.130599382327325
0001a0 97 42 eb 66 31 0b 00 c0 80 af 94 3f 60 b7 3a 40
       -2.0054653206391992 26.716312383461172
0001b0 97 42 eb 66 31 0b 00 c0 be 65 1d 89 51 4d 3b 40
       -2.0054653206391992 27.30202538459502
0001c0 97 42 eb 66 31 0b 00 c0 fb 1b a6 d2 42 e3 3b 40
       -2.0054653206391992 27.887738385728863
0001d0 97 42 eb 66 31 0b 00 c0 39 d2 2e 1c 34 79 3c 40
       -2.0054653206391992 28.47345138686271
0001e0 97 42 eb 66 31 0b 00 c0 77 88 b7 65 25 0f 3d 40
       -2.0054653206391992 29.059164387996557
0001f0 97 42 eb 66 31 0b 00 c0 b5 3e 40 af 16 a5 3d 40
       -2.0054653206391992 29.644877389130404
000200 97 42 eb 66 31 0b 00 c0 f2 f4 c8 f8 07 3b 3e 40
       -2.0054653206391992 30.230590390264247
000210 97 42 eb 66 31 0b 00 c0 30 ab 51 42 f9 d0 3e 40
       -2.0054653206391992 30.816303391398094
000220 97 42 eb 66 31 0b 00 c0 6e 61 da 8b ea 66 3f 40
       -2.0054653206391992 31.40201639253194
000230 97 42 eb 66 31 0b 00 c0 ac 17 63 d5 db fc 3f 40
       -2.0054653206391992 31.987729393665788
000240 97 42 eb 66 31 0b 00 c0 f5 e6 75 8f 66 49 40 40
       -2.0054653206391992 32.573442394799635
000250 97 42 eb 66 31 0b 00 c0 14 42 3a 34 5f 94 40 40
       -2.0054653206391992 33.15915539593348
000260 97 42 eb 66 31 0b 00 c0 33 9d fe d8 57 df 40 40
       -2.0054653206391992 33.74486839706733
000270 97 42 eb 66 31 0b 00 c0 52 f8 c2 7d 50 2a 41 40
       -2.0054653206391992 34.330581398201176
000280 00 c6 e9 70 38 b0 83 bf 52 34 c7 c6 3c da 20 c0
       -0.009613457628094402 -8.42624493772215
000290 00 c6 e9 70 38 b0 83 bf f4 ba 54 a1 25 2f 1e c0
       -0.009613457628094402 -7.546041985317732
0002a0 00 c6 e9 70 38 b0 83 bf 43 0d 1b b5 d1 a9 1a c0
       -0.009613457628094402 -6.665839032913314
0002b0 00 c6 e9 70 38 b0 83 bf 91 5f e1 c8 7d 24 17 c0
       -0.009613457628094402 -5.785636080508895
0002c0 00 c6 e9 70 38 b0 83 bf e0 b1 a7 dc 29 9f 13 c0
       -0.009613457628094402 -4.905433128104477
0002d0 00 c6 e9 70 38 b0 83 bf 2f 04 6e f0 d5 19 10 c0
       -0.009613457628094402 -4.025230175700059
0002e0 00 c6 e9 70 38 b0 83 bf fa ac 68 08 04 29 09 c0
       -0.009613457628094402 -3.1450272232956396
0002f0 00 c6 e9 70 38 b0 83 bf 98 51 f5 2f 5c 1e 02 c0
       -0.009613457628094402 -2.2648242708912214
000300 00 c6 e9 70 38 b0 83 bf 6c ec 03 af 68 27 f6 bf
       -0.009613457628094402 -1.3846213184868033
000310 00 c6 e9 70 38 b0 83 bf 50 6b 3a fc 31 24 e0 bf
       -0.009613457628094402 -0.5044183660823851
000320 00 c6 e9 70 38 b0 83 bf 70 04 26 cb da 0c d8 3f
       -0.009613457628094402 0.37578458632203304
000330 00 c6 e9 70 38 b0 83 bf e4 37 b0 63 86 18 f4 3f
       -0.009613457628094402 1.255987538726452
000340 00 c6 e9 70 38 b0 83 bf 56 77 4b 0a eb 16 01 40
       -0.009613457628094402 2.136190491130871
000350 00 c6 e9 70 38 b0 83 bf b6 d2 be e2 92 21 08 40
       -0.009613457628094402 3.0163934435352884
000360 00 c6 e9 70 38 b0 83 bf 1a 2e 32 bb 3a 2c 0f 40
       -0.009613457628094402 3.8965963959397074
000370 00 c6 e9 70 38 b0 83 bf bd c4 d2 49 71 1b 13 40
       -0.009613457628094402 4.776799348344125
000380 00 c6 e9 70 38 b0 83 bf 6f 72 0c 36 c5 a0 16 40
       -0.009613457628094402 5.657002300748544
000390 00 c6 e9 70 38 b0 83 bf 21 20 46 22 19 26 1a 40
       -0.009613457628094402 6.537205253152963
0003a0 00 c6 e9 70 38 b0 83 bf d1 cd 7f 0e 6d ab 1d 40
       -0.009613457628094402 7.41740820555738
0003b0 00 c6 e9 70 38 b0 83 bf c2 bd 5c 7d 60 98 20 40
       -0.009613457628094402 8.2976111579618
0003c0 5c be 79 e5 c9 35 00 c0 64 1e 38 32 85 cf 3f c0
       -2.026263993051357 -31.810626162243707
0003d0 5c be 79 e5 c9 35 00 c0 73 2e 3f bd 68 25 3f c0
       -2.026263993051357 -31.14612944405094
0003e0 5c be 79 e5 c9 35 00 c0 82 3e 46 48 4c 7b 3e c0
       -2.026263993051357 -30.48163272585817
0003f0 5c be 79 e5 c9 35 00 c0 90 4e 4d d3 2f d1 3d c0
       -2.026263993051357 -29.817136007665397
000400 5c be 79 e5 c9 35 00 c0 9f 5e 54 5e 13 27 3d c0
       -2.026263993051357 -29.152639289472628
000410 5c be 79 e5 c9 35 00 c0 ae 6e 5b e9 f6 7c 3c c0
       -2.026263993051357 -28.48814257127986
000420 5c be 79 e5 c9 35 00 c0 bc 7e 62 74 da d2 3b c0
       -2.026263993051357 -27.823645853087086
000430 5c be 79 e5 c9 35 00 c0 cb 8e 69 ff bd 28 3b c0
       -2.026263993051357 -27.159149134894317
000440 5c be 79 e5 c9 35 00 c0 da 9e 70 8a a1 7e 3a c0
       -2.026263993051357 -26.49465241670155
000450 5c be 79 e5 c9 35 00 c0 e9 ae 77 15 85 d4 39 c0
       -2.026263993051357 -25.83015569850878
000460 5c be 79 e5 c9 35 00 c0 f8 be 7e a0 68 2a 39 c0
       -2.026263993051357 -25.16565898031601
000470 5c be 79 e5 c9 35 00 c0 06 cf 85 2b 4c 80 38 c0
       -2.026263993051357 -24.501162262123238
000480 5c be 79 e5 c9 35 00 c0 15 df 8c b6 2f d6 37 c0
       -2.026263993051357 -23.83666554393047
000490 5c be 79 e5 c9 35 00 c0 24 ef 93 41 13 2c 37 c0
       -2.026263993051357 -23.1721688257377
0004a0 5c be 79 e5 c9 35 00 c0 32 ff 9a cc f6 81 36 c0
       -2.026263993051357 -22.507672107544927
0004b0 5c be 79 e5 c9 35 00 c0 41 0f a2 57 da d7 35 c0
       -2.026263993051357 -21.843175389352158
0004c0 5c be 79 e5 c9 35 00 c0 50 1f a9 e2 bd 2d 35 c0
       -2.026263993051357 -21.17867867115939
0004d0 5c be 79 e5 c9 35 00 c0 5f 2f b0 6d a1 83 34 c0
       -2.026263993051357 -20.51418195296662
0004e0 5c be 79 e5 c9 35 00 c0 6e 3f b7 f8 84 d9 33 c0
       -2.026263993051357 -19.84968523477385
0004f0 5c be 79 e5 c9 35 00 c0 7c 4f be 83 68 2f 33 c0
       -2.026263993051357 -19.18518851658108
000500 cc 84 74 fb 3c af 1d 40 97 90 5a 93 2a 33 2e 40
       7.42113106630968 15.099934201054834
000510 4c 60 18 f3 59 ae 1f 40 97 90 5a 93 2a 33 2e 40
       7.92026500545769 15.099934201054834
000520 e6 1d 5e 75 bb d6 20 40 97 90 5a 93 2a 33 2e 40
       8.4193989446057 15.099934201054834
000530 a6 0b 30 f1 49 d6 21 40 97 90 5a 93 2a 33 2e 40
       8.91853288375371 15.099934201054834
000540 66 f9 01 6d d8 d5 22 40 97 90 5a 93 2a 33 2e 40
       9.417666822901719 15.099934201054834
000550 26 e7 d3 e8 66 d5 23 40 97 90 5a 93 2a 33 2e 40
       9.916800762049728 15.099934201054834
000560 e6 d4 a5 64 f5 d4 24 40 97 90 5a 93 2a 33 2e 40
       10.415934701197738 15.099934201054834
000570 a7 c2 77 e0 83 d4 25 40 97 90 5a 93 2a 33 2e 40
       10.91506864034575 15.099934201054834
000580 67 b0 49 5c 12 d4 26 40 97 90 5a 93 2a 33 2e 40
       11.41420257949376 15.099934201054834
000590 27 9e 1b d8 a0 d3 27 40 97 90 5a 93 2a 33 2e 40
       11.913336518641769 15.099934201054834
0005a0 e7 8b ed 53 2f d3 28 40 97 90 5a 93 2a 33 2e 40
       12.412470457789778 15.099934201054834
0005b0 a7 79 bf cf bd d2 29 40 97 90 5a 93 2a 33 2e 40
       12.911604396937788 15.099934201054834
0005c0 67 67 91 4b 4c d2 2a 40 97 90 5a 93 2a 33 2e 40
       13.410738336085798 15.099934201054834
0005d0 27 55 63 c7 da d1 2b 40 97 90 5a 93 2a 33 2e 40
       13.909872275233807 15.099934201054834
0005e0 e8 42 35 43 69 d1 2c 40 97 90 5a 93 2a 33 2e 40
       14.409006214381819 15.099934201054834
0005f0 a8 30 07 bf f7 d0 2d 40 97 90 5a 93 2a 33 2e 40
       14.908140153529828 15.099934201054834
000600 68 1e d9 3a 86 d0 2e 40 97 90 5a 93 2a 33 2e 40
       15.407274092677838 15.099934201054834
000610 28 0c ab b6 14 d0 2f 40 97 90 5a 93 2a 33 2e 40
       15.906408031825848 15.099934201054834
000620 f4 7c 3e 99 d1 67 30 40 97 90 5a 93 2a 33 2e 40
       16.405541970973857 15.099934201054834
000630 d4 73 27 d7 98 e7 30 40 97 90 5a 93 2a 33 2e 40
       16.904675910121867 15.099934201054834
000640 32 93 cd 4c 37 5a 14 c0 66 77 81 17 2e c4 18 40
       -5.088101577803899 6.1915820763368625
000650 32 93 cd 4c 37 5a 14 c0 42 ef ce ef b6 da 1c 40
       -5.088101577803899 7.213588473325048
000660 32 93 cd 4c 37 5a 14 c0 90 33 0e e4 9f 78 20 40
       -5.088101577803899 8.235594870313236
000670 32 93 cd 4c 37 5a 14 c0 7e ef 34 50 e4 83 22 40
       -5.088101577803899 9.257601267301421
000680 32 93 cd 4c 37 5a 14 c0 6d ab 5b bc 28 8f 24 40
       -5.088101577803899 10.279607664289609
000690 32 93 cd 4c 37 5a 14 c0 5c 67 82 28 6d 9a 26 40
       -5.088101577803899 11.301614061277796
0006a0 32 93 cd 4c 37 5a 14 c0 4a 23 a9 94 b1 a5 28 40
       -5.088101577803899 12.323620458265982
0006b0 32 93 cd 4c 37 5a 14 c0 38 df cf 00 f6 b0 2a 40
       -5.088101577803899 13.345626855254167
0006c0 32 93 cd 4c 37 5a 14 c0 27 9b f6 6c 3a bc 2c 40
       -5.088101577803899 14.367633252242355
0006d0 32 93 cd 4c 37 5a 14 c0 15 57 1d d9 7e c7 2e 40
       -5.088101577803899 15.38963964923054
0006e0 32 93 cd 4c 37 5a 14 c0 82 09 a2 a2 61 69 30 40
       -5.088101577803899 16.411646046218728
0006f0 32 93 cd 4c 37 5a 14 c0 7a 67 b5 d8 03 6f 31 40
       -5.088101577803899 17.433652443206917
000700 32 93 cd 4c 37 5a 14 c0 70 c5 c8 0e a6 74 32 40
       -5.088101577803899 18.4556588401951
000710 32 93 cd 4c 37 5a 14 c0 68 23 dc 44 48 7a 33 40
       -5.088101577803899 19.477665237183288
000720 32 93 cd 4c 37 5a 14 c0 5f 81 ef 7a ea 7f 34 40
       -5.088101577803899 20.499671634171474
000730 32 93 cd 4c 37 5a 14 c0 56 df 02 b1 8c 85 35 40
       -5.088101577803899 21.52167803115966
000740 32 93 cd 4c 37 5a 14 c0 4e 3d 16 e7 2e 8b 36 40
       -5.088101577803899 22.54368442814785
000750 32 93 cd 4c 37 5a 14 c0 44 9b 29 1d d1 90 37 40
       -5.088101577803899 23.56569082513603
000760 32 93 cd 4c 37 5a 14 c0 3c f9 3c 53 73 96 38 40
       -5.088101577803899 24.58769722212422
000770 32 93 cd 4c 37 5a 14 c0 34 57 50 89 15 9c 39 40
       -5.088101577803899 25.60970361911241
000780 92 26 e5 27 d3 01 34 c0 d5 bf 64 c7 65 71 2a 40
       -20.00712823242663 13.221479636238579
000790 1b f0 bf 34 f6 42 33 c0 d5 bf 64 c7 65 71 2a 40
       -19.26156930623993 13.221479636238579
0007a0 a4 b9 9a 41 19 84 32 c0 d5 bf 64 c7 65 71 2a 40
       -18.51601038005323 13.221479636238579
0007b0 2e 83 75 4e 3c c5 31 c0 d5 bf 64 c7 65 71 2a 40
       -17.770451453866535 13.221479636238579
0007c0 b7 4c 50 5b 5f 06 31 c0 d5 bf 64 c7 65 71 2a 40
       -17.024892527679835 13.221479636238579
0007d0 40 16 2b 68 82 47 30 c0 d5 bf 64 c7 65 71 2a 40
       -16.279333601493136 13.221479636238579
0007e0 94 bf 0b ea 4a 11 2f c0 d5 bf 64 c7 65 71 2a 40
       -15.53377467530644 13.221479636238579
0007f0 a6 52 c1 03 91 93 2d c0 d5 bf 64 c7 65 71 2a 40
       -14.78821574911974 13.221479636238579
