data/kmeans/b2d_plan_spat_6x8_5m.npy (npy, 2432 bytes, 1 tensors)

array f4 [48, 6, 2]
00000000: 0249 c0bf 19aa a240 6b23 90c0 5d8e 1441
00000010: 844e 05c1 e1d4 4d41 ee6d 46c1 e979 8141
00000020: 61da 82c1 c32c 9b41 8e63 a2c1 b48e b441
00000030: 6207 3c3f a35a a440 5d66 8c40 9d62 1041
00000040: 759c 3141 b73e 2641 49f6 8941 e029 2c41
00000050: e67d b641 cd71 3141 7eff e041 ea9b 3641
00000060: 32f3 b1be 320b a940 d8b0 53c0 185f 1c41
00000070: ce3e 0ac1 b47d 4841 6280 75c1 2a1c 5341
00000080: e64d acc1 3be8 5341 434a d9c1 5847 5541
00000090: f007 2abf 21a3 a940 0b74 10c0 9807 2241
000000a0: 7829 85c0 4109 6d41 39c8 c4c0 067c 9b41
000000b0: 1ce6 04c1 5d04 c041 6e02 2ac1 c29f e341
000000c0: d672 563f 16c4 a940 39d4 1d40 a097 2041
000000d0: 3c44 8c40 c730 6c41 91fa c340 0afe 9a41
000000e0: b7f9 fc40 3f4c c041 7429 1b41 72fb e541
000000f0: 3006 1a40 b7ef 9140 21e5 be40 aa1d 0341
00000100: 7fbb 2241 7585 3341 947f 6d41 e617 5e41
00000110: 4930 9a41 3a43 8341 95b9 bc41 83aa 9741
00000120: 18c5 8fbe 6f6e a840 9ea0 eebf 28b5 2241
00000130: 1515 bac0 2bdd 6241 a8f0 3cc1 79ea 8341
00000140: dd67 95c1 d4b5 8741 3314 c9c1 862f 8741
00000150: 62b1 d13d 8990 ab40 faa2 c33e 76e9 2541
00000160: 2031 ee3e 2c95 7441 8075 7a3e ba8e a241
00000170: a0c5 06be ce6d ca41 a0f0 29bf 547f f141
00000180: d401 a1be 1d12 ad40 d23a 9abf c742 2341
00000190: 9ca7 21c0 c135 7241 f062 76c0 b8c0 9f41
000001a0: 1273 a6c0 c232 c641 e272 d7c0 20a7 ec41
000001b0: f62f 9ebd acba a940 5667 43bf 0237 2541
000001c0: a545 42c0 a09f 6f41 e6fc efc0 1441 9641
000001d0: c22f 65c1 13ad a541 786e abc1 4434 aa41
000001e0: d72c 933f e096 a340 b422 5740 905b 1b41
000001f0: 6a2a cb40 4da3 5e41 9c5c 1d41 9f29 8e41
00000200: 4461 5741 9650 ab41 b928 8841 30ab c841
00000210: dbd2 0140 d864 9740 9b30 f340 636e da40
00000220: 27e7 5541 7532 f040 e446 9641 cd60 fd40
00000230: cd57 c041 a99a 0641 ecf3 e741 f3f5 0f41
00000240: 1979 dbbf a441 a140 c9da a7c0 4918 0d41
00000250: 0d0a 1ec1 5400 3b41 6eaa 6dc1 e04f 5e41
00000260: 750c 9ec1 2e29 7e41 ce78 c4c1 3093 8e41
00000270: 3740 bcbf 84b7 a140 076d b9c0 5667 0541
00000280: 0f3c 3ac1 1784 1d41 b60e 8bc1 3e95 2641
00000290: 3ef8 b7c1 84fb 2841 f621 e3c1 6249 2b41
000002a0: f41d 8ebf e47a a640 149b 5ac0 56cf 1c41
000002b0: 3dc9 cac0 37a4 5f41 b25b 14c1 4937 9141
000002c0: 05f9 43c1 570c b241 44c0 74c1 5b6b d241
000002d0: 0005 1740 32af 8e40 5a4d 0841 8f4e b840
000002e0: 5ee6 6141 2809 a640 12ca a041 3468 4a40
000002f0: 237f ca41 1c07 0040 8c79 f341 008e 4740
00000300: e8d2 59bd 9757 aa40 1f6c 593e 2dcb 2541
00000310: 655f 2c3f e110 7641 23b6 953f df06 a341
00000320: 3c02 da3f 79cf ca41 a4d9 1640 6690 f241
00000330: c8e8 89bc a05d a740 5ac8 b9be 6a98 2541
00000340: a54d 40c0 4dec 6f41 b780 12c1 41fd 8f41
00000350: 05c0 86c1 6e08 9741 06c0 bdc1 5324 9741
00000360: 1c08 2f3d 2cff a540 63c8 733e a388 2341
00000370: 760c 0f40 b2d8 6f41 b907 3641 9d33 8541
00000380: f9d8 9741 44a0 8541 5824 cb41 a8c9 8541
00000390: c497 e73d 9742 a740 9df6 443e 754e 2441
000003a0: e3a3 1abf 8273 7541 3bb1 4ec0 db25 a041
000003b0: 3098 0ec1 c737 bc41 62f5 83c1 4026 ca41
000003c0: c0ed 483f 1919 a540 ddb5 3c40 a389 1d41
000003d0: aa9d b640 7469 6341 fc70 0b41 8a1e 9341
000003e0: dc42 4141 7a54 b241 7247 7841 8b54 d041
000003f0: 0eb5 ffbf 6305 9b40 dd90 34c0 9e7d 1e41
-1.502228 5.083264 -4.5043235 9.284757 -8.331669 12.864472 -12.401838 16.184526
-16.35663 19.396856 -20.29861 22.56968 0.73448765 5.136064 4.3874955 9.0240755
11.1006975 10.390311 17.245256 10.760223 22.811474 11.090283 28.124752 11.413065
-0.34755856 5.2826166 -3.3076687 9.773216 -8.640333 12.530689 -15.343843 13.194376
-21.538036 13.244197 -27.16126 13.329918 -0.6641836 5.301163 -2.2570827 10.126854
-4.161312 14.814759 -6.1494412 19.435558 -8.306179 24.00213 -10.625593 28.453007
0.83768976 5.3051863 2.466078 10.037018 4.3833294 14.761909 6.1243367 19.374043
7.905483 24.03723 9.69762 28.747776 2.4066277 4.560512 5.96547 8.194742
10.170775 11.220082 14.843647 13.880835 19.273577 16.407825 23.590616 18.958258
-0.28080058 5.2634807 -1.8642766 10.169228 -5.8150735 14.178996 -11.808754 16.489489
-18.675714 16.963783 -25.134863 16.898205 0.10238911 5.3613935 0.3821028 10.369497
0.46521854 15.286419 0.24458885 20.31969 -0.13161325 25.303616 -0.6638279 30.187172
-0.31446707 5.408461 -1.20492 10.203803 -2.525855 15.1381235 -3.8497887 19.9691
-5.2015467 24.774784 -6.732774 29.581604 -0.077239916 5.304037 -0.76329553 10.32593
-3.0355008 14.976471 -7.4996214 18.781776 -14.32416 20.709509 -21.42894 21.27552
1.1498059 5.1121674 3.361493 9.709854 6.3489275 13.914868 9.83511 17.770323
13.4612465 21.414349 17.019884 25.083588 2.0284946 4.73106 7.5996833 6.825975
13.368934 7.5061593 18.784615 7.9180665 24.042871 8.412759 28.994102 8.997546
-1.7146331 5.039263 -5.245457 8.818429 -9.877454 11.68758 -14.854109 13.894501
-19.756083 15.885054 -24.558987 17.821869 -1.4707097 5.053652 -5.794559 8.3377285
-11.639663 9.8447485 -17.382183 10.411436 -22.996212 10.561405 -28.391582 10.705416
-1.1102891 5.2025013 -3.4157152 9.800619 -6.337065 13.9775915 -9.272387 18.151995
-12.248296 22.256025 -15.29694 26.30242 2.3596802 4.458886 8.518885 5.7595897
14.118742 5.1886177 20.098667 3.16261 25.312078 2.000434 30.43435 3.118042
-0.05317965 5.323192 0.21232651 10.362103 0.6733306 15.379121 1.1696209 20.378355
1.7031932 25.351305 2.3570337 30.320507 -0.016834632 5.230179 -0.3628567 10.34971
-3.004739 14.995191 -9.1564245 17.99866 -16.84376 18.879116 -23.718761 18.892736
0.042732343 5.187399 0.2380691 10.220859 2.2351356 14.990404 11.376885 16.650202
18.980944 16.703255 25.392746 16.723465 0.11308244 5.2268786 0.192347 10.269155
-0.6040632 15.3407 -3.2295673 20.018484 -8.912155 23.527235 -16.494816 25.268677
0.7848778 5.1593137 2.9486 9.846103 5.706746 14.213245 8.715084 18.389912
12.078823 22.291248 15.517443 26.04128 -1.9977129 4.8444076 -2.8213418 9.905668
